best_model.pth (torch_old, 89717 bytes, 20 tensors)

Encoder.0.weight f4 [64, 30]
0.27008262 0.008383018 -0.013928825 0.22815812 -0.36736542 0.2462234 -0.045727104 -0.22578622
-0.09376733 -0.043308273 0.28024006 0.29075024 0.12996978 -0.05800333 0.12391921 0.0027013621
0.055246443 -0.27809072 -0.11483855 -0.07080202 -0.4841529 -0.34012228 -0.49246445 0.103893556
0.3597402 -0.24766421 -0.24883792 0.340326 0.13490121 -0.095962994 -0.44650456 -0.3559479
-0.05017605 0.12136806 0.1337189 -0.020330716 -0.13787036 -0.42854455 0.072156385 -0.044034746
0.027352838 -0.005822141 -0.050634436 -0.020935033 0.2401284 0.035826243 0.029747974 -0.053088363
-0.08785188 -0.46348956 -0.4116326 0.32659885 0.4663371 -0.1063917 0.34123683 -0.08595021
-0.028674096 -0.0129555855 -0.025755998 0.017506745 -0.047908816 0.27147382 0.062233653 -0.12767293
0.051226083 -0.1340053 -0.38182032 0.11290955 0.053602602 -0.022206081 0.17631921 0.22678678
0.23512073 -0.1463736 -0.0158541 -0.04819155 -0.14172548 -0.09054502 0.27504808 -0.551723
-0.20701961 -0.14853458 0.46356797 -0.28315023 -0.14108646 0.13402805 0.20970905 -0.09639002
0.015329592 -0.23991595 -0.3938444 0.1375808 0.14328323 -0.13820118 0.048186406 -0.0057894816
0.2775542 -0.24897149 0.122799546 0.21588092 0.05304178 -0.096154384 0.0032324905 -0.21640761
0.024114244 -0.14482851 0.009754847 0.07408554 0.18321767 0.032776557 0.15562402 0.107473396
0.1532744 0.13118044 -0.2749099 0.038999055 -1.0836444 -0.28382236 0.21840833 -0.017307963
-0.34232515 0.094962105 0.025202392 -0.13188906 0.13761315 -0.03052918 0.24348047 -0.11698119
0.2225862 0.31774268 -0.18673763 -0.054505862 0.07893546 -0.21958366 -0.1699235 0.12964092
-0.14424562 0.2080343 -0.12789257 -0.16899778 -0.09073126 0.5364857 -0.109759256 -0.22741893
-0.36358464 -0.041616414 0.052286692 0.11168333 -0.004184207 -0.10739144 0.46755296 -0.33887452
-0.14127813 0.12992564 -0.13486381 0.021353178 -0.09340465 0.06576004 0.15263167 0.06319687
-0.118060455 0.0027011374 -0.09139708 0.005246901 -0.066930234 0.11063244 0.07557736 0.058755998
0.01590283 -0.06078757 -0.087662816 -0.06374073 0.10472194 0.07956776 0.3916517 0.36430064
-0.04895829 -0.18917844 0.04580268 -0.2923175 -0.065970145 -0.05628207 -0.2808324 -0.15286191
0.24859746 0.60900146 -0.16612113 -0.056672543 0.10965888 -0.11922669 -0.06478904 -0.015578327
-0.111314505 0.043771096 0.16158892 0.030775217 -0.06159399 -0.080616355 -0.23143058 0.037175268
-0.31300402 -0.068858705 -0.122003466 0.6039115 -0.27176148 -0.3256513 -0.21309094 -0.12694196
0.08009652 -0.12885688 0.03413421 -0.23703775 -0.3500407 0.2600517 0.12471593 -0.2663812
0.012845203 0.035069596 0.03356408 0.21580283 0.097218215 -0.012902044 0.07017488 0.025815727
0.19560474 -0.11633081 -0.122714415 -0.1795696 0.27350157 -0.12623169 -0.17043698 -0.41318738
0.18673927 0.050792534 -0.22012812 -0.5089789 0.2109075 -0.4373686 0.12992503 -0.24353361
-0.11923974 -0.10590463 9.462603e-05 0.031456403 -0.23623982 -0.102637954 0.25848493 -0.20216438
0.22104548 -0.11421414 -0.08585371 -0.09658272 -0.50546736 0.090330474 -0.10338669 0.087160535
00000000: 4548 8a3e ed58 093c ba35 64bc 48a2 693e
00000010: 5217 bcbe fd21 7c3e 584c 3bbd 8134 67be
00000020: 1609 c0bd 0464 31bd a07b 8f3e 37dd 943e
00000030: cc16 053e e694 6dbd 5bc9 fd3d 5609 313b
00000040: 184a 623d e861 8ebe 7930 ebbd a600 91bd
00000050: e4e2 f7be 8224 aebe 4d24 fcbe 25c6 d43d
00000060: de2f b83e b09b 7dbe 5ecf 7ebe 363f ae3e
00000070: 8b23 0a3e 3f88 c4bd 3f9c e4be ce3e b6be
00000080: 6785 4dbd d18f f83d 9bed 083e 9a8c a6bc
00000090: e32d 0dbe 316a dbbe bac6 933d c75d 34bd
000000a0: 0f13 e03c a9c7 bebb 0e66 4fbd f27f abbc
000000b0: 38e4 753e 8abe 123d 06b2 f33c 2f73 59bd
000000c0: b0eb b3bd 814e edbe 82c1 d2be f737 a73e
000000d0: bdc3 ee3e e4e3 d9bd 98b6 ae3e aa06 b0bd
000000e0: f0e5 eabc aa43 54bc 3efe d2bc 4e6a 8f3c
000000f0: 093c 44bd 9efe 8a3e b7e8 7e3d b1bc 02be
00000100: 71d2 513d af38 09be f47d c3be 1f3d e73d
00000110: 678e 5b3d 87e9 b5bc 068d 343e cb3a 683e
00000120: 7dc3 703e f6e2 15be 75e0 81bc 8164 45bd
00000130: 7c20 11be ab6f b9bd 1ad3 8c3e b83d 0dbf
00000140: f3fc 53be 7319 18be c858 ed3e 11f9 90be
00000150: f878 10be a63e 093e f8bd 563e 2168 c5bd
00000160: f828 7b3c 87ac 75be f9a5 c9be fbe1 0c3e
00000170: d7b8 123e 9c84 0dbe 1c5f 453d b1b5 bdbb
00000180: 961b 8e3e 62f2 7ebe 547e fb3d e30f 5d3e
00000190: 5642 593d 97ec c4bd 31d8 533b f599 5dbe
000001a0: 3c8b c53c ed4d 14be cbd2 1f3c 29ba 973d
000001b0: 6a9d 3b3e b640 063d e75b 1f3e 031b dc3d
000001c0: f7f3 1c3e 2a54 063e fec0 8cbe 79bd 1f3d
000001d0: dcb4 8abf 2a51 91be 6fa6 5f3e 6ec9 8dbc
000001e0: 3e45 afbe 7e7b c23d 3f75 ce3c ed0d 07be
000001f0: 76ea 0c3e 5518 fabc f252 793e d693 efbd
00000200: a3ed 633e 2baf a23e 2638 3fbe 8a41 5fbd
00000210: eaa8 a13d 8ada 60be 6d00 2ebe 97c0 043e
00000220: 20b5 13be f206 553e 45f6 02be c10d 2dbe
00000230: 50d1 b9bd 2057 093f 76c9 e0bd 82e0 68be
00000240: c427 babe f975 2abd 922a 563d 3bba e43d
00000250: ac1b 89bb 0bf0 dbbd 1a63 ef3e f680 adbe
00000260: 37ab 10be 3a0b 053e bd19 0abe dcec ae3c
00000270: f04a bfbd 33ad 863d 7a4b 1c3e 5c6d 813d
00000280: aec9 f1bd 9105 313b 642e bbbd 32ee ab3b
00000290: b812 89bd 4393 e23d 4ec8 9a3d 21aa 703d
000002a0: a746 823c 63fc 78bd 9088 b3bd 808a 82bd
000002b0: 7578 d63d 6cf4 a23d 9286 c83e 9d85 ba3e
000002c0: 7d88 48bd feb7 41be 979b 3b3d a4aa 95be
000002d0: 5b1b 87bd 0788 66bd 44c9 8fbe d587 1cbe
000002e0: 5590 7e3e 85e7 1b3f a81b 2abe 7821 68bd
000002f0: d694 e03d 1f2d f4bd 1eb0 84bd 3d3c 7fbc
00000300: dcf8 e3bd 5249 333d 9177 253e 4f1c fc3c
00000310: fb49 7cbd 301a a5bd 23fc 6cbe 1845 183d
00000320: 1042 a0be cb05 8dbd f4dc f9bd f299 1a3f
00000330: 5224 8bbe c4bb a6be 8334 5abe 13fd 01be
00000340: a509 a43d 0ff3 03be 50d0 0b3d 06ba 72be
00000350: 8938 b3be 7f25 853e 116b ff3d 1e63 88be
00000360: b074 523c 23a5 0f3d 7d7a 093d 6bfb 5c3e
00000370: 581a c73d 1863 53bc d9b7 8f3d 817b d33c
00000380: 9c4c 483e d93e eebd b251 fbbd 18e1 37be
00000390: 6608 8c3e e142 01be 0887 2ebe 4c8d d3be
000003a0: 9438 3f3e d50b 503d 4469 61be 714c 02bf
000003b0: 23f8 573e c7ee dfbe 110b 053e e060 79be
000003c0: f733 f4bd 87e4 d8bd f771 c638 6ed8 003d
000003d0: dae8 71be d933 d2bd 2358 843e 2e04 4fbe
000003e0: bf59 623e 1ae9 e9bd 12d4 afbd 29cd c5bd
000003f0: 4f66 01bf 2fff b83d 67bc d3bd 3981 b23d

Encoder.0.bias f4 [64]
-0.11079417 0.09622281 0.03765415 -0.119888455 -0.0865587 -0.087285504 -0.01248965 -0.009872286
0.14834726 -0.032257583 -0.07737823 0.10994568 0.1679632 0.041882202 -0.11990816 0.1420744
0.09445714 0.057089686 -0.01414049 0.12782308 -0.038829304 0.030308338 -0.059631314 0.0965735
0.16157141 -0.05235459 0.052582644 -0.13673565 -0.09485738 -0.040449496 -0.1721836 -0.03320806
0.043419782 -0.072534606 0.13748698 0.12359608 -0.11365108 0.03363288 -0.16328275 -0.11842184
-0.057206236 0.14326738 -0.15334858 -0.1307436 -0.14204907 0.0814556 -0.076663226 -0.13855736
0.11320643 0.071872 0.13549331 -0.074268974 0.12477907 -0.091504924 -0.005315151 -0.098286375
0.079599924 -0.05689602 -0.023417573 0.15457371 0.039884053 0.09731239 0.038303785 -0.065042675
00000000: 0ee8 e2bd 7710 c53d 3d3b 1a3d 1488 f5bd
00000010: b045 b1bd bec2 b2bd 64a1 4cbc 5ebf 21bc
00000020: 58e8 173e 8720 04bd 7a78 9ebd 332b e13d
00000030: 8cfe 2b3e ac8c 2b3d 6992 f5bd f47b 113e
00000040: bf72 c13d e0d6 693d 84ad 67bc 0ee4 023e
00000050: 7a0b 1fbd 3149 f83c f73f 74bd 54c8 c53d
00000060: fa72 253e c471 56bd e660 573d 6e04 0cbe
00000070: 9644 c2bd 5fae 25bd e650 30be 2d05 08bd
00000080: f1d8 313d 068d 94bd 63c9 0c3e f11f fd3d
00000090: e6c1 e8bd a1c2 093d 9833 27be 2687 f2bd
000000a0: 1651 6abd afb4 123e 6907 1dbe a6e1 05be
000000b0: 5075 11be 32d2 a63d 9c01 9dbd fbe1 0dbe
000000c0: c6d8 e73d a131 933d c2be 0a3e 551a 98bd
000000d0: 2b8c ff3d ef66 bbbd b82a aebb 5e4a c9bd
000000e0: 4905 a33d cd0b 69bd 36d6 bfbc 9248 1e3e
000000f0: 765d 233d b84b c73d 6ee4 1c3d 1835 85bd

Encoder.1.weight f4 [64]
0.7273544 0.9194551 0.46324518 0.8183246 0.7001637 0.8522627 0.71345454 0.68830013
0.5711588 0.8733748 0.8613703 0.81355983 0.77677053 0.5569726 0.8884049 0.73784
0.72166365 0.5995664 0.77741784 0.658181 0.75863767 0.4991874 0.8482023 0.52693856
0.9835418 0.762585 0.8710058 0.7931459 0.61998445 0.812579 0.5538251 0.7916663
0.37316564 0.98467094 0.65715957 0.86238 0.55601746 0.54617184 0.7690973 0.6039237
0.7923592 0.79214114 0.67817557 0.73924583 0.4755564 0.8360286 0.5628371 0.50767154
0.67724943 0.6569127 0.6122899 0.9818701 0.8706564 0.6430047 0.6031726 0.43455297
0.530685 0.85039806 0.48756722 0.83028734 0.724849 0.87879616 1.1292342 0.5074421
00000000: e633 3a3f 6961 6b3f 792e ed3e b97d 513f
00000010: ee3d 333f e32d 5a3f f5a4 363f 7034 303f
00000020: 7737 123f 7e95 5f3f c482 5c3f 7545 503f
00000030: 6fda 463f c295 0e3f 816e 633f 15e3 3c3f
00000040: f3be 383f 2f7d 193f db04 473f 8d7e 283f
00000050: 1436 423f 7e95 ff3e c923 593f 72e5 063f
00000060: 65c9 7b3f c538 433f 3cfa 5e3f 9c0b 4b3f
00000070: 4db7 1e3f 2d05 503f 7bc7 0d3f a5aa 4a3f
00000080: 910f bf3e 6513 7c3f 9c3b 283f f0c4 5c3f
00000090: 2957 0e3f ebd1 0b3f 90e3 443f be9a 1a3f
000000a0: 0dd8 4a3f c3c9 4a3f ea9c 2d3f 373f 3d3f
000000b0: 217c f33e f805 563f 1816 103f c3f6 013f
000000c0: 3860 2d3f 6e2b 283f 08bf 1c3f d75b 7b3f
000000d0: 56e3 5e3f f59b 243f 8569 1a3f ba7d de3e
000000e0: f9da 073f b0b3 593f 69a2 f93e b68d 543f
000000f0: b48f 393f c9f8 603f bf8a 903f bae7 013f

Encoder.1.bias f4 [64]
0.26052856 0.9307472 0.8663948 0.53897667 0.9374454 -0.09983447 1.0306473 0.3099795
1.5819213 2.3762121 0.020555813 0.44508657 0.17340147 0.7879847 0.82681096 1.7684177
-0.15759388 1.123109 1.2015319 1.0007207 1.3485037 0.6185686 0.41911116 1.2439814
0.39646524 1.5368528 -0.22882406 1.4500251 0.7802858 0.2677324 0.4211214 -0.16326448
0.9386895 0.7649206 0.89673644 0.30569184 0.7168133 0.54158443 1.5227305 1.1875194
2.0115278 1.5135523 1.815324 1.6379186 1.2390819 0.00011207422 1.7940234 1.0080577
1.6400279 0.42067435 0.8056028 0.3045718 0.7755798 0.84300053 0.60816795 1.1254578
1.2414783 0.8586305 0.9941487 1.4822794 0.828563 0.6664648 0.032704487 1.096841
00000000: 0064 853e 7345 6e3f 0dcc 5d3f 60fa 093f
00000010: 6cfc 6f3f 0476 ccbd 40ec 833f a2b5 9e3e
00000020: 667c ca3f dc13 1840 aa64 a83c 63e2 e33e
00000030: 2890 313e 5eb9 493f e2a9 533f 835b e23f
00000040: 4a60 21be 09c2 8f3f cccb 993f 9e17 803f
00000050: c59b ac3f 835a 1e3f bd95 d63e c83a 9f3f
00000060: 7efd ca3e 98b7 c43f db50 6abe 6c9a b93f
00000070: cfc0 473f 3914 893e 399d d73e ce2e 27be
00000080: f44d 703f d6d1 433f 8590 653f a483 9c3e
00000090: 1481 373f 47a5 0a3f d5e8 c23f a300 983f
000000a0: dfbc 0040 15bc c13f 895c e83f 51a7 d13f
000000b0: 3c9a 9e3f 6409 eb38 8fa2 e53f 0908 813f
000000c0: 6fec d13f a162 d73e fc3b 4e3f d6f0 9b3e
000000d0: 668c 463f e2ce 573f e5b0 1b3f 000f 903f
000000e0: c3e8 9e3f 35cf 5b3f 8780 7e3f 55bb bd3f
000000f0: b41c 543f 709d 2a3f 24f5 053d 4965 8c3f

Encoder.1.running_mean f4 [64]
-0.004039049 0.05392808 0.022921091 0.070550136 -0.10651334 -0.07924026 0.035997182 0.06242581
0.24378149 0.06632045 -0.10294422 0.2344484 0.20448627 -0.025772834 -0.016585913 0.18058242
0.086883664 0.12992585 0.023787472 0.24361975 -0.113635644 0.31650677 0.077648774 -0.10396011
0.08662986 0.014472341 0.113159165 -0.17437379 -0.34193844 0.1201394 -0.39386013 -0.030753639
0.10837315 -0.0677043 0.24930732 0.12951575 -0.15312429 0.3063321 -0.0858324 -0.08289662
0.14246342 0.42700273 -0.039646104 -0.24351494 -0.08709424 -0.16060399 -0.08934363 -0.13887899
0.15358871 -0.186157 0.31965786 -0.06829627 0.18774547 -0.09274261 -0.04714422 -0.26499718
0.1074479 0.002801287 -0.3227462 0.45738807 -0.042921066 0.06596249 0.07127855 0.08718069
00000000: 005a 84bb b1e3 5c3d 03c5 bb3c 977c 903d
00000010: aa23 dabd b848 a2bd c871 133d 35b2 7f3d
00000020: dba1 793e 04d3 873d 6bd4 d2bd 3e13 703e
00000030: d964 513e 8d21 d3bc 2edf 87bc 99ea 383e
00000040: 10f0 b13d 480b 053e f2dd c23c 7577 793e
00000050: ceb9 e8bd 2d0d a23e 5206 9f3d 0ae9 d4bd
00000060: ff6a b13d 661d 6d3c febf e73d 0b8f 32be
00000070: 8e12 afbe a50b f63d 09a8 c9be 0eef fbbc
00000080: bef2 dd3d 8da8 8abd 6b4a 7f3e c79f 043e
00000090: 9dcc 1cbe 90d7 9c3e e6c8 afbd b4c5 a9bd
000000a0: eee1 113e 1aa0 da3e f463 22bd fb5b 79be
000000b0: 775e b2bd 5f75 24be cbf9 b6bd 4b36 0ebe
000000c0: 5c46 1d3e f19f 3ebe 32aa a33e eade 8bbd
000000d0: 5940 403e d6ef bdbd 4c1a 41bd b6ad 87be
000000e0: a50d dc3d cc95 373b fd3e a5be c52e ea3e
000000f0: 00ce 2fbd 5817 873d 7dfa 913d ca8b b23d

Encoder.1.running_var f4 [64]
1.5857642 1.2940093 0.8745061 1.8291619 1.144747 1.4504429 1.4682239 1.1974456
1.3061447 1.340854 1.2033335 2.0188231 1.3334342 0.946868 1.3016865 1.3989972
0.928418 1.3265016 1.167453 1.4135883 1.1031544 1.9460331 1.5775707 0.9815376
1.8632115 1.1348464 1.2625605 1.1451794 1.3858764 1.7839812 1.4775876 1.1830052
0.72529763 1.1971108 1.0322496 1.0435807 0.68842065 2.6827314 1.2110641 1.4042895
1.4342694 1.8026886 1.1063209 0.93721396 0.88322204 2.582055 1.1364386 1.0815989
1.3240417 2.8896003 1.561807 1.669063 2.1769402 1.39082 1.2536906 0.72161293
1.1365678 1.7210782 1.3592883 1.3512495 1.2177697 1.2754583 1.8594471 0.95496875
00000000: 52fa ca3f 19a2 a53f a2df 5f3f fa21 ea3f
00000010: 1287 923f 1da8 b93f c3ee bb3f e645 993f
00000020: c02f a73f 1ba1 ab3f d506 9a3f 6634 0140
00000030: f9ad aa3f f165 723f aa9d a63f 5712 b33f
00000040: cdac 6d3f ceca a93f 1a6f 953f 76f0 b43f
00000050: 2a34 8d3f 9d17 f93f d6ed c93f 0c46 7b3f
00000060: b77d ee3f a642 913f 959b a13f 3d95 923f
00000070: 6664 b13f 7f59 e43f 9721 bd3f b76c 973f
00000080: 1bad 393f ed3a 993f c120 843f 0d94 853f
00000090: 563c 303f dfb1 2b40 2604 9b3f c2bf b33f
000000a0: 2496 b73f 80be e63f ec9b 8d3f 41ed 6f3f
000000b0: d71a 623f 6440 2540 d276 913f d571 8a3f
000000c0: 337a a93f 36ef 3840 4be9 c73f dba3 d53f
000000d0: fd52 0b40 6406 b23f ef78 a03f a0bb 383f
000000e0: 0e7b 913f 4a4c dc3f 29fd ad3f bef5 ac3f
000000f0: e1df 9b3f 3842 a33f 5d02 ee3f d578 743f

Encoder.3.weight f4 [128, 64]
0.040791236 -0.1539974 0.10437437 -0.11734166 0.22205089 -0.087688275 -0.15466315 -0.1605582
0.29984358 0.13366063 -0.12677106 0.11167747 0.09932267 0.09220097 0.23617771 0.11536203
0.008323031 0.0075117685 0.07274382 -0.06726944 0.22183248 -0.061865695 -0.2775401 0.044180203
0.1684195 0.10207199 -0.091218576 -0.08295734 0.0069974726 0.11036058 -0.04484451 0.33092174
-0.0069386964 0.022271914 0.09737681 0.22227858 -0.29213896 0.06975004 0.8094689 0.120787
0.0184337 -0.08174397 -0.26415235 -0.24980034 -0.25650504 0.027245104 0.009837041 -0.02481291
0.02051191 0.10496164 0.037453823 0.1309683 -0.03661804 0.34634057 0.03917432 0.06432877
-0.09867251 0.06574682 -0.08770258 -0.18218985 0.2287326 0.069361 -0.30003485 0.12542835
-0.019323928 -0.038394745 0.083431825 0.08516081 0.2679737 0.23029295 -0.15682165 0.4634195
0.066063754 -0.12985823 -0.017188469 0.07466982 0.19767365 -0.014330374 -0.12171398 0.028846962
0.12799828 0.25277522 -0.025637338 -0.10109169 0.030325407 0.094131686 0.24168737 0.6734057
0.005576935 -0.12567613 0.09114772 -0.048869174 0.17102183 -0.047423482 0.1235191 0.0608786
0.18144542 0.02748204 -0.14139499 -0.1597923 0.014600946 0.117138654 0.089582995 -0.029503526
-0.20429963 0.12601253 -0.13308616 0.23549604 0.23300155 -0.01437255 -0.101733945 -0.09589749
-0.25343794 0.264229 0.022601077 0.031484053 0.07443223 0.27042112 -0.0995107 0.17697805
0.39921457 0.0033759885 0.56417966 -0.18273866 0.27171057 0.056981515 0.023665395 -0.0770061
0.11723015 0.1615418 0.25420925 -0.12726045 0.09199363 0.025236174 0.32984254 0.020664006
-0.022149142 -0.05092111 -0.14142202 0.06378895 0.090262994 0.07556112 0.10193259 -0.04248967
0.045644198 -0.10998276 0.48272035 0.06336694 0.12261249 0.325458 -0.03137241 0.108736165
0.24141006 -0.006622007 -0.048382934 -0.095618054 0.13052183 0.04611243 -0.05437003 0.051772956
0.1885259 0.08729525 -0.1980082 -0.14725251 0.14162153 -0.24548762 0.005591006 -0.123231694
0.18224436 0.38833684 -0.09971183 -0.10090255 -0.0332412 0.29631844 -0.43366256 -0.19376215
-0.2480779 -0.07453701 0.014331639 0.13441631 -0.12417406 -0.19662511 -0.08128702 0.007303455
0.15218933 0.062053446 0.4023605 0.0037160655 0.053341694 -0.010067289 -0.07810562 -0.0015645358
0.17828888 0.010288014 0.13171977 -0.22383738 -0.010456192 0.060181953 -0.05771706 0.2327508
-0.050983254 0.008266384 0.768953 -0.12984347 -0.065671206 -0.109286994 0.07094989 0.16158132
0.09621556 -0.1275752 -0.16482961 -0.09282878 0.12489091 0.016756993 -0.2342134 0.15484543
-0.15581328 -0.026920155 0.43538886 -0.040302366 0.025529519 -0.06799274 -0.07488265 -0.059738316
-0.10438064 0.0045988713 -0.09108429 0.07538219 -0.13224147 -0.0012359369 0.10932942 -0.11906725
0.31493145 0.03883841 -0.14167418 0.068024755 0.0170388 -0.16060829 -0.1299793 -0.041267537
0.10702203 -0.11954475 -0.18735443 -0.178937 0.018410038 -0.08527923 0.0025962098 -0.024315301
-0.06762942 0.085037135 -0.08217769 -0.1316973 -0.02380218 0.014722853 0.4242138 0.17481963
00000000: b614 273d 7fb1 1dbe 3bc2 d53d d350 f0bd
00000010: 4f61 633e e995 b3bd 0460 1ebe 5e69 24be
00000020: 1985 993e 55de 083e 46d0 01be 28b7 e43d
00000030: af69 cb3d ddd3 bc3d 92d8 713e ee42 ec3d
00000040: 525d 083c 4825 f63b b6fa 943d 8fc4 89bd
00000050: 0e28 633e e266 7dbd bc19 8ebe 4df6 343d
00000060: 2976 2c3e 1f0b d13d ced0 babd 8ae5 a9bd
00000070: 0e4b e53b ba04 e23d e0ae 37bd 936e a93e
00000080: 015e e3bb 9773 b63c 7e6d c73d ff9c 633e
00000090: 3d93 95be 1cd9 8e3d 5b39 4f3f 2d5f f73d
000000a0: 4502 973c 6269 a7bd fa3e 87be a9cb 7fbe
000000b0: a154 83be 2031 df3c 8a2b 213c 7244 cbbc
000000c0: 9808 a83c 21f6 d63d 2e69 193d 8e1c 063e
000000d0: ccfc 15bd 8d53 b13e 4075 203d cdbe 833d
000000e0: d014 cabd 45a6 863d 699d b3bd fa8f 3abe
000000f0: e138 6a3e 240d 8e3d 2b9e 99be 4a70 003e
00000100: 374d 9ebc cf43 1dbd 4ede aa3d ca68 ae3d
00000110: d933 893e ead1 6b3e db95 20be 5245 ed3e
00000120: 6f4c 873d 8ef9 04be d5ce 8cbc 7eec 983d
00000130: f66a 4a3e f2c9 6abc 2e45 f9bd 7750 ec3c
00000140: fb11 033e c16b 813e 6505 d2bc 2909 cfbd
00000150: fd6c f83c 1dc8 c03d e57c 773e 5164 2c3f
00000160: b9be b63b 3eb1 00be a8ab ba3d 0b2b 48bd
00000170: 5920 2f3e 203f 42bd 95f7 fc3d d75b 793d
00000180: d4cc 393e 0422 e13c d9c9 10be 98a0 23be
00000190: ce38 6f3c 64e6 ef3d 4a77 b73d 61b1 f1bc
000001a0: ec33 51be 6e09 013e bd47 08be e025 713e
000001b0: f597 6e3e d87a 6bbc e359 d0bd e765 c4bd
000001c0: 9ec2 81be 0649 873e e525 b93c 6cf5 003d
000001d0: ed6f 983d a374 8a3e 44cc cbbd bc39 353e
000001e0: da65 cc3e b03f 5d3b 146e 103f d81f 3bbe
000001f0: a61d 8b3e 7365 693d eedd c13c 60b5 9dbd
00000200: 5c16 f03d 376b 253e b727 823e 9050 02be
00000210: 2867 bc3d 18bc ce3c 1fe1 a83e 9047 a93c
00000220: 1e72 b5bc a792 50bd efd0 10be c8a3 823d
00000230: cedb b83d cabf 9a3d 09c2 d03d a609 2ebd
00000240: 69f5 3a3d a43e e1bd 1f27 f73e 87c6 813d
00000250: 421c fb3d 6ea2 a63e 5b80 00bd 11b1 de3d
00000260: 3334 773e 6cfd d8bb 2f2d 46bd 66d3 c3bd
00000270: 84a7 053e 63e0 3c3d 1cb3 5ebd e10f 543d
00000280: ef0c 413e dac7 b23d a9c2 4abe 5dc9 16be
00000290: 3c05 113e 1b61 7bbe c234 b73b e660 fcbd
000002a0: 449e 3a3e 16d4 c63e b735 ccbd ffa5 cebd
000002b0: ed27 08bd 0db7 973e 0509 debe 9669 46be
000002c0: 2208 7ebe dca6 98bd 40cf 6a3c 6ea4 093e
000002d0: f84e febd 1858 49be cf79 a6bd d251 ef3b
000002e0: 85d7 1b3e c12b 7e3d 3202 ce3e 3c89 733b
000002f0: d27c 5a3d 45f1 24bc d7f5 9fbd 1c11 cdba
00000300: 5c91 363e 0f8f 283c 8ce1 063e a035 65be
00000310: 7350 2bbc 5a81 763d b968 6cbd 3a56 6e3e
00000320: d1d3 50bd ba6f 073c 1bda 443f b0f5 04be
00000330: a07e 86bd dcd1 dfbd 2d4e 913d 9375 253e
00000340: aa0c c53d 13a3 02be 18c9 28be 041d bebd
00000350: cec6 ff3d f645 893c a3d5 6fbe cd8f 1e3e
00000360: 848d 1fbe a887 dcbc 4aeb de3e 1814 25bd
00000370: 4823 d13c c73f 8bbd 135c 99bd 2ab0 74bd
00000380: 84c5 d5bd 21b2 963b 668a babd fa61 9a3d
00000390: 4f6a 07be 29ff a1ba 1ae8 df3d 88d9 f3bd
000003a0: b23e a13e 0615 1f3d 0913 11be 9050 8b3d
000003b0: f494 8b3c 8076 24be 4b19 05be 2608 29bd
000003c0: 5e2e db3d e1d3 f4bd d7d9 3fbe 433b 37be
000003d0: a6d0 963c e0a6 aebd 2c25 2a3b e230 c7bc
000003e0: 4b81 8abd f327 ae3d c74c a8bd a8db 06be
000003f0: cafc c2bc 1f38 713c 8d32 d93e eb03 333e

Encoder.3.bias f4 [128]
0.010460187 -0.08461895 -0.10011277 0.057345565 -0.049317837 -0.054156043 -0.039358523 0.119387776
0.08887731 -0.05933623 -0.07955874 0.10463139 0.021676425 0.028787639 0.0050373506 -0.018777914
-0.034717843 -0.06804398 0.11088122 0.009023558 -0.084341936 -0.10063386 0.046981297 -0.043767054
-0.10767883 -0.052331336 -0.12258064 0.08272136 0.11173541 0.047715478 0.06810613 0.05667388
-0.11072394 -0.0010630226 0.036065165 -0.00370009 0.02815406 0.06375499 0.05625797 0.059020128
0.12377915 0.01885812 0.018797116 -0.020230135 0.0346336 -0.009752183 -0.06848508 -0.07382195
0.100240886 -0.1205858 -0.010115209 0.037464224 -0.101095416 -0.035798494 -0.09213891 0.0018023546
-0.12460514 -0.08481414 -0.007292752 0.009411708 0.03361664 -0.019246362 -0.03738678 -0.011312262
0.0418047 -0.06326624 -0.07941083 0.06992935 0.015115561 -0.084151685 0.06637113 0.06558815
0.10596396 -0.1055013 -5.0842278e-05 0.044623427 -0.039334703 0.060241 0.0729176 0.07061408
0.014899335 0.018016912 0.043344356 0.115756646 0.014381512 0.00787798 -0.11276628 -0.0055891396
-0.048922777 0.07258414 -0.046202917 0.008477588 0.0911883 0.07366596 0.1006875 -0.066333115
-0.11358954 0.07846453 0.03372983 8.227325e-05 0.05052302 -0.075941935 0.117224485 0.079103544
0.10353899 -0.09731437 -0.040969245 0.01659814 0.08046724 0.11276511 0.0066451672 0.06537073
-0.11821875 0.0074416175 0.03730473 0.04779963 -0.05253704 -0.04156967 -0.10315422 -0.046612363
0.09309691 0.048336197 0.08163913 -0.080016606 0.09263713 -0.08235729 -0.12099322 -0.021925718
00000000: 3461 2b3c b34c adbd ed07 cdbd 2fe3 6a3d
00000010: 8001 4abd bad2 5dbd 6736 21bd 9481 f43d
00000020: 4f05 b63d 8c0a 73bd b1ef a2bd fb48 d63d
00000030: c292 b13c 0ed4 eb3c 5c10 a53b 24d4 99bc
00000040: 4c34 0ebd a45a 8bbd b115 e33d 8cd7 133c
00000050: 77bb acbd 2019 cebd 766f 403d 1545 33bd
00000060: b886 dcbd 6259 56bd 8f0b fbbd d169 a93d
00000070: 89d5 e43d 4e71 433d 3a7b 8b3d df22 683d
00000080: 3cc3 e2bd 1f55 8bba 11b9 133d 367d 72bb
00000090: 58a3 e63c fa91 823d c26e 663d 17bf 713d
000000a0: ec7f fd3d 587c 9a3c 69fc 993c abb9 a5bc
000000b0: f6db 0d3d 9fc7 1fbc e841 8cbd f62f 97bd
000000c0: 184b cd3d b0f5 f6bd 43ba 25bc 1674 193d
000000d0: 1d0b cfbd 71a1 12bd 53b3 bcbd fc3c ec3a
000000e0: fb30 ffbd 09b3 adbd 0af8 eebb 9133 1a3c
000000f0: 9ab1 093d 8caa 9dbc e122 19bd 1157 39bc
00000100: 683b 2b3d bb91 81bd 25a2 a2bd 1e37 8f3d
00000110: 42a7 773c b857 acbd 96ed 873d 1453 863d
00000120: a203 d93d 1111 d8bd 7b3f 55b8 0ec7 363d
00000130: 6d1d 21bd 44bf 763d d355 953d 1d9e 903d
00000140: 571c 743c 3498 933c da89 313d d211 ed3d
00000150: 6fa0 6b3c a512 013c 02f2 e6bd 1a25 b7bb
00000160: 4063 48bd fea6 943d 453f 3dbd 95e5 0a3c
00000170: eec0 ba3d 2ede 963d 3f35 ce3d a8d9 87bd
00000180: a2a1 e8bd 03b2 a03d 4a28 0a3d 1d8a ac38
00000190: 3af1 4e3d 7287 9bbd 6413 f03d 0a01 a23d
000001a0: 400c d43d c24c c7bd 5ecf 27bd d3f8 873c
000001b0: 02cc a43d 65f1 e63d b4bf d93b 17e1 853d
000001c0: ac1c f2bd d0d8 f33b d8cc 183d 8bc9 433d
000001d0: 1431 57bd f544 2abd 8542 d3bd 9bec 3ebd
000001e0: 98a9 be3d 2dfc 453d 6b32 a73d bfdf a3bd
000001f0: 89b8 bd3d f0aa a8bd 4bcb f7bd 909d b3bc

Encoder.4.weight f4 [128]
1.1322248 0.7344478 1.1099278 1.0252597 0.5575173 0.61138535 1.24145 0.7760849
0.8232452 1.0009254 0.94888836 1.1352415 0.76031685 0.82728815 0.7267621 1.2634239
0.49124557 0.6313636 0.8157442 1.0738163 0.9672707 0.6092919 0.6078801 0.80972004
1.0702653 0.7572766 0.48603088 0.8990999 0.6116035 1.0199991 0.69093865 0.96705437
1.1451757 0.8423841 0.84813356 0.6416357 0.60942954 1.0376071 0.9623684 1.1732519
1.204006 1.2942411 0.6325689 0.8480399 0.7167465 1.3374387 0.94405985 0.5013343
0.9848752 0.9901628 1.20741 0.91591334 1.1862495 0.7573736 0.41339532 0.85408086
0.44976342 0.71042806 0.83096623 1.0141987 0.9420941 0.6332579 1.0183594 0.5450506
0.8670812 0.5083274 0.8360118 1.195794 0.4824081 0.78603125 0.69150674 0.74687433
1.020553 0.65928644 1.4126852 0.6277263 0.7608003 0.56295836 0.92560196 1.7742536
0.87864584 0.6272156 1.1930047 0.6772364 0.74958897 0.9634425 0.67060834 0.9209703
1.1900532 1.1103688 0.6817065 0.5550862 0.6030456 0.77284634 0.60006905 0.93592334
1.0370194 1.0312774 0.8796341 0.9239346 0.79173976 0.7520478 1.1811243 0.87585604
0.6727177 0.5583355 1.0365889 0.53460723 1.2334675 1.0451794 0.5522776 0.9017274
0.4930588 0.4863628 0.8269063 0.6431011 0.89632833 1.1312598 1.0945778 1.0013292
0.6025439 0.5708432 0.84773207 0.9405226 1.2309012 1.0739485 1.2673377 0.75205123
00000000: beec 903f c504 3c3f 1d12 8e3f b63b 833f
00000010: 74b9 0e3f c083 1c3f d5e7 9e3f 80ad 463f
00000020: 33c0 523f 531e 803f 59ea 723f 984f 913f
00000030: 20a4 423f 28c9 533f 150d 3a3f e0b7 a13f
00000040: 8a84 fb3e 0ba1 213f 9dd4 503f d072 893f
00000050: 0d9f 773f 8efa 1b3f 089e 1b3f d049 4f3f
00000060: 74fe 883f e1dc 413f 0ad9 f83e 692b 663f
00000070: 0c92 1c3f 558f 823f 5be1 303f e090 773f
00000080: 1e95 923f 7ca6 573f 481f 593f 3d42 243f
00000090: 9303 1c3f 4fd0 843f c75d 763f 1e2d 963f
000000a0: de1c 9a3f b1a9 a53f 09f0 213f 2519 593f
000000b0: b37c 373f 3131 ab3f e8ad 713f 7257 003f
000000c0: c820 7c3f 4f7b 7d3f 698c 9a3f 4c79 6a3f
000000d0: 06d7 973f 3ce3 413f 8da8 d33e 0ba5 5a3f
000000e0: 6447 e63e 9dde 353f 34ba 543f 43d1 813f
000000f0: 142d 713f 311d 223f 9a59 823f 7088 0b3f
00000100: 09f9 5d3f bf21 023f df04 563f c70f 993f
00000110: 32fe f63e 5839 493f 9606 313f 2833 3f3f
00000120: 7ba1 823f ffc6 283f ded2 b43f acb2 203f
00000130: cfc3 423f 0a1e 103f 40f4 6c3f be1a e33f
00000140: efee 603f 3491 203f 61b4 983f 5d5f 2d3f
00000150: 10e5 3f3f 2ba4 763f fdac 2b3f b6c4 6b3f
00000160: aa53 983f 9120 8e3f 5184 2e3f 211a 0e3f
00000170: 3261 1a3f 42d9 453f 209e 193f ac98 6f3f
00000180: 0dbd 843f e600 843f b32f 613f fa86 6c3f
00000190: 75af 4a3f 3486 403f 152f 973f 1a38 603f
000001a0: 3a37 2c3f 13ef 0e3f f2ae 843f 05dc 083f
000001b0: 43e2 9d3f 70c8 853f 1162 0d3f 9bd7 663f
000001c0: 3472 fc3e 8b04 f93e 22b0 533f 46a2 243f
000001d0: c675 653f 1fcd 903f 201b 8c3f 8e2b 803f
000001e0: 5140 1a3f c822 123f f804 593f 17c6 703f
000001f0: 2c8e 9d3f 2577 893f 1f38 a23f 6e86 403f

Encoder.4.bias f4 [128]
0.3426648 0.43102658 -0.07371865 0.15358871 0.09258969 0.84459317 0.19184099 -0.009437886
0.04080404 0.45502624 1.4415628 -0.046636727 0.21383429 -0.5267086 1.3950967 0.37715065
0.7140866 1.0740626 -0.20919585 0.32442114 0.17222261 0.952544 0.4693108 0.15828186
0.05960175 0.1744932 0.9300275 0.51107854 1.5065953 0.28718665 0.26885998 0.0962221
0.08702168 0.16839063 0.12663637 1.4199752 1.415156 0.4283825 -0.11745761 0.22968951
0.47245732 0.47729865 0.5136096 0.06392378 0.035159748 0.54567885 -0.12487662 0.8281906
-0.06226062 0.2637816 0.19684696 0.13341233 0.43838763 1.0023379 0.691801 0.45113164
0.5460844 0.51581514 1.037584 0.14239214 0.65435624 0.8782413 -0.0066138837 0.17615202
2.0654147 0.8147751 -0.07605006 0.91433924 0.77835476 0.455002 0.5674921 0.44143698
1.2272574 0.8234642 0.447474 0.96940553 0.92761815 0.2480867 0.19559951 0.09014073
0.42409593 1.4334148 0.6137632 0.2430301 0.081150256 0.49106106 0.27624035 -0.0049750484
0.3091243 0.17571531 1.6423274 0.4171872 0.32468945 0.33992013 1.0879751 1.6818182
0.10050551 0.3701362 -0.041785236 -0.16307828 -0.07142177 0.25760752 0.4898323 0.01217877
0.49929604 1.2432696 -0.03614045 0.6313655 0.192188 0.31715947 1.0284903 0.3580602
0.18191367 0.15159763 0.6478411 1.5687231 0.14482743 -0.12287998 0.38291174 0.6168338
0.35940552 1.3172767 0.90684515 0.17774339 0.31240407 -0.15792233 -0.20877668 1.1918612
00000000: c371 af3e 84af dc3e cef9 96bd 5c46 1d3e
00000010: aa9f bd3d 4237 583f f771 443e 5da1 1abc
00000020: 2322 273d 33f9 e83e 2185 b83f 2706 3fbd
00000030: 60f7 5a3e 60d6 06bf 8792 b23f e419 c13e
00000040: 61ce 363f e27a 893f 7037 56be 871a a63e
00000050: 205b 303e ecd9 733f 8149 f03e a414 223e
00000060: f720 743d 58ae 323e 4816 6e3f 0bd6 023f
00000070: 1dd8 c03f 210a 933e 04a8 893e 1810 c53d
00000080: 6c38 b23d 986e 2c3e f7ac 013e bfc1 b53f
00000090: d523 b53f f354 db3e 9e8d f0bd ba33 6b3e
000000a0: ede5 f13e 7d60 f43e eb7b 033f 79ea 823d
000000b0: ab03 103d 9cb1 0b3f 50bf ffbd 4d04 543f
000000c0: fe04 7fbd 620e 873e 4092 493e 3e9d 083e
000000d0: 5874 e03e 9c4c 803f df19 313f bafa e63e
000000e0: 30cc 0b3f 760c 043f 8dcf 843f 3fcf 113e
000000f0: e483 273f 6cd4 603f 47b9 d8bb 3261 343e
00000100: c12f 0440 1a95 503f 22c0 9bbd 2312 6a3f
00000110: 4242 473f 06f6 e83e 2a47 113f 0704 e23e
00000120: c516 9d3f 8dce 523f 501b e53e f62a 783f
00000130: 6278 6d3f 710a 7e3e 3d4b 483e b49b b83d
00000140: 1a23 d93e 237a b73f 961f 1d3f e2dc 783e
00000150: 1b32 a63d 5b6c fb3e 606f 8d3e bb05 a3bb
00000160: 8a45 9e3e b7ee 333e c937 d23f 9099 d53e
00000170: b23d a63e 030a ae3e c542 8b3f d245 d73f
00000180: d5d5 cd3d 7e82 bd3e ff26 2bbd fefd 26be
00000190: 9445 92bd 22e5 833e 4dcb fa3e 7789 473c
000001a0: bba3 ff3e 7523 9f3f 0208 14bd 2ba1 213f
000001b0: eecc 443e ba62 a23e 92a5 833f ab53 b73e
000001c0: 9447 3a3e 693c 1b3e ead8 253f ebcb c83f
000001d0: a44d 143e 80a8 fbbd 020d c43e d2e8 1d3f
000001e0: 0004 b83e 869c a83f 0127 683f 5d02 363e
000001f0: 6df3 9f3e 64b6 21be 8ec9 55be e88e 983f

Encoder.4.running_mean f4 [128]
1.9693897 2.6991491 1.1123991 0.20849183 -0.3509926 3.0793238 3.0834405 0.5912784
3.6866808 2.6269479 2.6266212 1.8071165 1.8951641 -0.5800451 1.1226399 3.00165
0.7861735 2.8389046 -0.2868969 -0.19722036 1.2635045 0.5281653 2.7050755 -0.21881275
-1.309785 3.4990058 1.4527135 2.2802203 0.13150492 2.7765963 2.3622599 1.675431
0.32887363 1.5072755 2.0123959 -1.1773231 0.3147159 2.361876 -0.45529082 0.3876566
0.49114972 0.3381796 2.1994524 1.6557322 3.0338678 2.5020406 -0.6360757 0.9146996
-1.46387 0.52571344 -0.087019145 2.2642395 1.1568872 2.452456 2.4903753 0.6650021
1.5946289 2.1224306 2.9146547 2.9728966 0.71654844 3.5702693 1.1647441 1.3075131
2.0649085 1.9325465 3.223444 -0.39609188 -1.1688402 0.5495398 3.6342866 4.854511
2.7554 0.6297024 1.9746364 2.3766463 -0.0043958346 2.1102653 2.8232205 2.5236714
3.0820668 1.311332 1.5098588 1.5419121 -0.9871613 2.8759584 0.5945074 2.1665812
1.3972659 1.5430259 1.8714937 1.4540341 -1.1912761 1.2140414 2.7565894 1.2963438
-0.9249848 2.1786258 2.4581497 -1.9408596 1.6357764 0.21545972 1.3498485 -0.46035886
2.7329607 0.62409765 -0.009345659 2.6522484 3.4160845 1.5011005 1.8214165 3.0282948
-1.8432606 -4.381183 3.1698024 1.5060227 1.198321 3.9757342 2.3702693 0.014719217
0.85530126 3.1177661 3.0860226 1.4879227 0.29683012 2.921889 0.99325764 1.8406732
00000000: f614 fc3f dcbe 2c40 1863 8e3f e27e 553e
00000010: 4db5 b3be a413 4540 1757 4540 055e 173f
00000020: 94f2 6b40 ea1f 2840 901a 2840 984f e73f
00000030: bd94 f23f d67d 14bf aab2 8f3f 091b 4040
00000040: ab42 493f 9db0 3540 27e4 92be 22f4 49be
00000050: 84ba a13f d735 073f f51f 2d40 7310 60be
00000060: 09a7 a7bf b6ef 5f40 84f2 b93f 21ef 1140
00000070: 3aa9 063e c1b3 3140 442f 1740 8674 d63f
00000080: 2062 a83e 67ee c03f 18cb 0040 86b2 96bf
00000090: 7122 a13e fa28 1740 e11b e9be ed7a c63e
000000a0: fa77 fb3e e025 ad3e d4c3 0c40 08ef d33f
000000b0: e42a 4240 6f21 2040 dbd5 22bf c129 6a3f
000000c0: 1860 bbbf 2895 063f 1837 b2bd 4de9 1040
000000d0: e114 943f 0af5 1c40 4f62 1f40 943d 2a3f
000000e0: cd1c cc3f e7d5 0740 b489 3a40 f043 3e40
000000f0: b86f 373f 4b7f 6440 5616 953f 975c a73f
00000100: 7627 0440 af5d f73f e84c 4e40 8ecc cabe
00000110: 8e9c 95bf a4ae 0c3f 2798 6840 2758 9b40
00000120: 7958 3040 2d34 213f e3c0 fc3f f91a 1840
00000130: ef0a 90bb 960e 0740 a5af 3440 d583 2140
00000140: 9540 4540 bad9 a73f 0e43 c13f 605d c53f
00000150: 9ab6 7cbf b40f 3840 a331 183f 44a9 0a40
00000160: 9cd9 b23f df81 c53f 1b8d ef3f ca1d ba3f
00000170: bc7b 98bf b565 9b3f f66b 3040 98ee a53f
00000180: cecb 6cbf 9b6e 0b40 5352 1d40 166e f8bf
00000190: 1f61 d13f 79a1 5c3e d6c7 ac3f 28b4 ebbe
000001a0: d4e8 2e40 ddc4 1f3f 891e 19bc 70be 2940
000001b0: 21a1 5a40 1024 c03f 2d24 e93f 95cf 4140
000001c0: f7ef ebbf a732 8cc0 0bde 4a40 5ac5 c03f
000001d0: 9562 993f 6e72 7e40 7eb2 1740 df28 713c
000001e0: 06f5 5a3f 7b89 4740 6581 4540 4074 be3f
000001f0: 1efa 973e 3b00 3b40 2246 7e3f 2e9b eb3f

Encoder.4.running_var f4 [128]
1.8814437 0.89835316 1.0156868 2.3265767 0.82852346 0.8578931 2.9374588 1.337235
1.0369964 1.1006517 1.4406692 1.364408 2.09024 0.9106897 1.0851738 2.053199
1.0790402 1.2967825 1.0213975 3.0876904 0.7230418 0.84041756 0.63892573 1.9168234
1.4636325 1.6957138 0.82264507 1.3468949 0.93420106 1.5821744 0.9739256 1.4186215
1.5129524 1.7900199 0.60689646 1.1842456 0.89946145 2.3187003 1.7835827 2.2035286
2.6365833 1.3306843 1.4626276 1.969625 1.5929596 2.795367 1.4653883 0.83159167
1.8725722 2.0123327 1.932221 1.6168828 1.6077693 0.81798166 1.0860367 0.8544593
0.77821285 1.062803 1.7405097 2.4004514 1.9878324 1.450861 0.6545715 1.1825678
1.2554446 0.7414386 1.4998332 1.9878708 0.85895157 0.66679794 1.3586369 2.4168348
2.048802 0.8871575 1.9999433 1.2549696 1.0580674 1.1980529 1.6531625 1.6958684
2.0480242 1.0742434 3.2002115 2.3818107 1.5123923 2.3055203 1.6484077 0.15486193
1.8493484 1.0682653 1.1169317 0.7012758 1.6080465 1.3504206 1.3024193 1.3262763
1.776049 3.1042404 1.5413274 1.9539676 1.7230527 1.0238533 2.4364152 1.8669995
0.7972867 0.8891728 1.72367 1.1302457 1.9704765 1.7749021 0.8206342 2.2322934
0.9392774 1.7240614 2.6235824 0.9939578 1.4771886 2.976869 2.1406221 1.3382202
0.8220815 1.0759405 1.8883675 2.2237175 1.1956131 1.217351 1.1444706 1.1406193
00000000: 26d3 f03f 79fa 653f 0602 823f a2e6 1440
00000010: 1d1a 543f e29e 5b3f 53ff 3b40 842a ab3f
00000020: 4cbc 843f 28e2 8c3f d967 b83f eca4 ae3f
00000030: 7ec6 0540 f622 693f fae6 8a3f 9d67 0340
00000040: fd1d 8a3f f8fc a53f 27bd 823f b89c 4540
00000050: 4419 393f 9b25 573f a390 233f 785a f53f
00000060: 4f58 bb3f 260d d93f de98 523f 0d67 ac3f
00000070: cd27 6f3f b184 ca3f 3053 793f 6495 b53f
00000080: 6da8 c13f 5f1f e53f 915d 1b3f 5c95 973f
00000090: 1b43 663f 9665 1440 704c e43f 9d06 0d40
000000a0: c8bd 2840 dd53 aa3f 6237 bb3f ac1c fc3f
000000b0: 1ae6 cb3f 4be7 3240 d891 bb3f 31e3 543f
000000c0: 72b0 ef3f 0fca 0040 0553 f73f 04f6 ce3f
000000d0: 62cb cd3f 3f67 513f 4003 8b3f d8bd 5a3f
000000e0: f538 473f ee09 883f 06c9 de3f ffa0 1940
000000f0: 4b71 fe3f d0b5 b93f ff91 273f 625e 973f
00000100: 69b2 a03f ecce 3d3f 89fa bf3f 8d72 fe3f
00000110: 40e4 5b3f 45b3 2a3f d0e7 ad3f 6cad 1a40
00000120: 921f 0340 c11c 633f 24fe ff3f d8a2 a03f
00000130: c16e 873f cc59 993f d49a d33f 3712 d93f
00000140: d412 0340 cf80 893f 44d0 4c40 966f 1840
00000150: 1296 c13f a58d 1340 06ff d23f 2094 1e3e
00000160: 73b7 ec3f ebbc 883f 9ef7 8e3f d086 333f
00000170: 78d4 cd3f 95da ac3f adb5 a63f 6cc3 a93f
00000180: 9355 e33f e0ab 4640 374a c53f 9c1b fa3f
00000190: fe8c dc3f a00d 833f 3aee 1b40 d7f9 ee3f
000001a0: fb1a 4c3f d4a0 633f 38a1 dc3f e4ab 903f
000001b0: 9338 fc3f fe2f e33f 1515 523f e5dd 0e40
000001c0: 7c74 703f 0bae dc3f c6e8 2740 0574 7e3f
000001d0: 8414 bd3f 0685 3e40 f4ff 0840 cd4a ab3f
000001e0: ef73 523f 6bb8 893f 07b6 f13f 6351 0e40
000001f0: da09 993f 28d2 9b3f 037e 923f d0ff 913f

Decoder.0.weight f4 [64, 128]
-0.08985998 0.06856666 0.1254285 0.053690508 -0.025800755 0.04698467 0.058028635 0.053469706
-0.04691135 0.11723554 0.1742076 0.055552617 0.07344178 0.04659411 -0.028020743 -0.13269117
-0.1581671 0.027408842 0.09092887 -0.060061753 -0.1060917 -0.20809966 -0.2587258 0.2055987
-0.03077135 -0.073114425 0.059852727 -0.109665245 0.29268265 0.1276359 0.0052792826 -0.013279809
0.01603147 0.33154428 0.12103572 0.03874103 -0.048651766 -0.13728236 0.0042539174 -0.3281624
-0.35217428 -0.072969064 -0.1564304 0.18613608 -0.041106008 0.05322451 0.036989752 0.058157716
-0.21406615 -0.008022988 0.045430712 -0.056884006 0.108075894 0.06627522 0.0914347 -0.07812046
0.07661765 -0.10262636 0.2111713 0.052968178 0.1355384 -0.1086295 -0.16896096 -0.04124062
0.3839117 -0.26925272 -0.15754059 -0.21189715 -0.0041522374 -0.0060833287 0.00788538 0.06873495
0.23578176 0.3728652 -0.15255097 0.18068828 -0.14369826 0.016035402 -0.22524832 -0.11397146
-0.0289454 -0.16123424 -0.16702962 -0.06806728 0.058901817 0.02037997 0.09378794 0.016335737
-0.11631947 0.17941149 0.13365322 -0.029131291 -0.084357515 -0.013823009 -0.104191676 0.19007239
0.17337902 0.07127982 -0.17156519 -0.4199493 0.17421386 -0.11340492 -0.024975099 0.04847159
-0.058858726 -0.21257156 0.4155269 -0.04652064 -0.014613981 -0.047536805 0.01674649 -0.031640522
0.2126542 -0.026305042 -0.1357186 -0.03224831 0.028226811 -0.14890023 0.04898256 -0.13640371
-0.08127967 0.06470131 0.03473919 -0.051702823 0.1304117 -0.14558978 -0.0011039159 -0.08147555
-0.110237144 -0.030445471 0.027539313 -0.10811812 0.06912331 0.1021784 -0.23842749 0.055099845
-0.23514676 0.015404064 0.18625236 0.30422997 -0.18570738 0.056917842 -0.08925816 -0.030917253
0.021462187 -0.0040411814 0.06866621 0.051368456 -0.120681845 0.0005609949 -0.1332868 -0.009488329
-0.027122429 -0.08444434 -0.09533142 0.28241262 -0.023291336 0.1903069 0.079791926 -0.1798954
0.070310384 0.17102021 -0.030539753 0.09183451 -0.12899901 0.018731067 0.2993252 -0.15353417
-0.13494901 0.03576722 -0.16989884 -0.23128992 0.002102061 0.03650296 0.08033671 0.15249656
0.17202851 -0.047116164 0.2863782 -0.05525822 -0.10131822 -0.06558255 -0.08955818 0.020574728
-0.154006 -0.09035697 -0.1645014 -0.13015682 0.04637021 0.34422642 -0.010399153 -0.024370672
-0.0402169 0.07051632 -0.057232603 0.1786233 0.21923648 -0.03942094 0.16963449 -0.0861783
-0.24131773 0.06425663 0.1623455 0.10549235 -0.10069015 -0.08447848 0.0129923085 0.08198687
-0.06783145 -0.11841258 -0.16902317 0.04310883 -0.010471842 -0.1482824 0.10508914 0.21551563
-0.16010231 -0.012513415 0.24028069 -0.12188851 0.50706923 0.13217011 -0.02216896 -0.013713941
0.045316253 -0.05108078 -0.03885472 0.1020175 -0.022522748 -0.0053934148 0.030057024 0.23084079
0.21371076 0.12518819 0.4383521 -0.029385524 -0.13114868 -0.07003667 0.310893 -0.05863332
0.13395551 -0.099049695 -0.10677694 0.17868291 -0.092577904 -0.007643556 -0.200496 -0.0358173
0.06621351 -0.23831461 -0.08880223 -0.08235914 0.036974695 0.2639154 -0.077073924 -0.1543132
00000000: 8208 b8bd ad6c 8c3d 5470 003e 94ea 5b3d
00000010: 1b5c d3bc ff72 403d 6faf 6d3d 0d03 5b3d
00000020: 1e26 40bd 3019 f03d 7a63 323e 248b 633d
00000030: a568 963d 77d9 3e3d c28b e5bc 32e0 07be
00000040: 8ef6 21be 8288 e03c ea38 ba3d 5003 76bd
00000050: 9b46 d9bd 1418 55be b577 84be 7788 523e
00000060: 3314 fcbc 04bd 95bd 2228 753d 2c98 e0bd
00000070: 80da 953e fcb2 023e d5fd ac3b 8e93 59bc
00000080: 6e54 833c 2cc0 a93e 93e1 f73d eaae 1e3d
00000090: 1347 47bd bf93 0cbe 7264 8b3b e704 a8be
000000a0: 3050 b4be ce70 95bd 4a2f 20be 759a 3e3e
000000b0: c65e 28bd f201 5a3d 9182 173d c936 6e3d
000000c0: 2834 5bbe da72 03bc 8e15 3a3d 34ff 68bd
000000d0: e556 dd3d 4dbb 873d 1e42 bb3d 9ffd 9fbd
000000e0: b7e9 9c3d c52d d2bd 4a3d 583e 29f5 583d
000000f0: 94ca 0a3e 2579 debd 1a04 2dbe edeb 28bd
00000100: 1390 c43e 7edb 89be 5252 21be 91fb 58be
00000110: 7e0f 88bb a956 c7bb ae31 013c e9c4 8c3d
00000120: c670 713e 30e8 be3e 5236 1cbe 5906 393e
00000130: a325 13be ad5c 833c 7fa7 66be de69 e9bd
00000140: e71e edbc 971a 25be d009 2bbe dc66 8bbd
00000150: 0843 713d e5f3 a63c e413 c03d 86d2 853c
00000160: e738 eebd a5b7 373e 64dc 083e bfa4 eebc
00000170: a2c3 acbd e779 62bc 7262 d5bd 56a2 423e
00000180: 458a 313e 27fb 913d c9ae 2fbe 9803 d7be
00000190: 1e65 323e d740 e8bd 9498 ccbc 258a 463d
000001a0: d915 71bd 5cac 59be f1bf d43e 6d8c 3ebd
000001b0: 7b6f 6fbc f4b5 42bd ef2f 893c 7e99 01bd
000001c0: 06c2 593e ac7d d7bc d1f9 0abe ce16 04bd
000001d0: ea3b e73c 4d79 18be f0a1 483d 6aad 0bbe
000001e0: f575 a6bd 1f82 843d ae4a 0e3d 57c6 53bd
000001f0: a58a 053e 7d15 15be 45b1 90ba a7dc a6bd
00000200: 03c4 e1bd c868 f9bc 209a e13c 086d ddbd
00000210: 8690 8d3d e942 d13d 5626 74be 60b0 613d
00000220: 50ca 70be 5461 7c3c f0b8 3e3e 08c4 9b3e
00000230: 132a 3ebe af22 693d fbcc b6bd 2e46 fdbc
00000240: 78d1 af3c e36b 84bb dfa0 8c3d bb67 523d
00000250: 0b28 f7bd bb0f 133a 567c 08be f074 1bbc
00000260: db2f debc 27f1 acbd 1f3d c3bd 6398 903e
00000270: 79cd bebc d0df 423e f369 a33d 8036 38be
00000280: e4fe 8f3d ec1f 2f3e 812e fabc bb13 bc3d
00000290: 5118 04be e571 993c 2741 993e 1038 1dbe
000002a0: 1330 0abe a680 123d f6f9 2dbe 44d7 6cbe
000002b0: bbc2 093b 2184 153d 9387 a43d 0f28 1c3e
000002c0: 3e28 303e e1fc 40bd 2aa0 923e 7156 62bd
000002d0: ed7f cfbd 2550 86bd 476a b7bd 558c a83c
000002e0: c0b3 1dbe 130d b9bd 0e73 28be d447 05be
000002f0: b0ee 3d3d 723e b03e 3661 2abc 01a5 c7bc
00000300: 7aba 24bd dc6a 903d bc6c 6abd 07e9 363e
00000310: 877f 603e da77 21bd aab4 2d3e 407e b0bd
00000320: ff1b 77be fb98 833d e63d 263e 600c d83d
00000330: a336 cebd 0e03 adbd b1dd 543c bbe8 a73d
00000340: 37eb 8abd 4b82 f2bd 6914 2dbe e292 303d
00000350: 1792 2bbc 57d7 17be fa38 d73d 21b0 5c3e
00000360: dcf1 23be 1105 4dbc 240c 763e afa0 f9bd
00000370: 4acf 013f 9a57 073e ae9b b5bc 70b0 60bc
00000380: 899d 393d 143a 51bd 2026 1fbd 8dee d03d
00000390: a081 b8bc 3ebb b0bb 263a f63c 8761 6c3e
000003a0: fed6 5a3e 5531 003e b06f e03e e9b9 f0bc
000003b0: d74b 06be 636f 8fbd 5e2d 9f3e 7e29 70bd
000003c0: a22b 093e 91da cabd dead dabd a7f8 363e
000003d0: 7c99 bdbd cc76 fabb d34e 4dbe 29b5 12bd
000003e0: f39a 873d bf08 74be f2dd b5bd e9ab a8bd
000003f0: c772 173d eb1f 873e efd8 9dbd 4804 1ebe

Decoder.0.bias f4 [64]
0.02298135 -0.003220411 0.018744178 -0.048918333 0.040423 0.0573174 -0.017546654 -0.0284411
-0.08187576 0.04461507 0.045477767 0.03644842 0.0021142217 0.045860782 -0.07261809 -0.078473814
-0.008718569 -0.024103804 0.036046226 0.03327642 0.08552346 -0.06879718 0.04618601 0.07132323
0.049566418 -0.050776385 0.07990081 0.021197151 -0.08094003 -0.011291787 -0.019335985 0.001198517
0.035389468 -0.0013741129 -0.056550514 -0.08589661 0.0030029383 0.04962489 -0.08156832 0.05507018
-0.09169172 -0.03754089 0.030917184 -0.031248543 0.047077518 0.07862022 0.04051583 0.046360623
-0.08099998 0.03455003 0.06471193 -0.04061602 -0.016823417 -0.07360473 0.022266062 -0.041773926
0.08127876 0.02422428 -0.044441838 0.056928992 -0.009925749 -0.031512532 0.07494985 0.09064246
00000000: 6243 bc3c 880d 53bb 648d 993c 975e 48bd
00000010: 9692 253d a6c5 6a3d 00be 8fbc 4ffd e8bc
00000020: 7aae a7bd 4bbe 363d e546 3a3d f04a 153d
00000030: c18e 0a3b 84d8 3b3d cbb8 94bd e1b6 a0bd
00000040: 54d8 0ebc 5775 c5bc 35a5 133d db4c 083d
00000050: ec26 af3d 89e5 8cbd 8b2d 3d3d ea11 923d
00000060: 2806 4b3d e6fa 4fbd 09a3 a33d a6a5 ad3c
00000070: e3c3 a5bd 3001 39bc 8066 9ebc 8f17 9d3a
00000080: 8cf4 103d 941b b4ba 83a1 67bd 90ea afbd
00000090: f2cc 443b 7843 4b3d 4b0d a7bd 4591 613d
000000a0: dec8 bbbd 7ac4 19bd 0946 fd3c f2fc ffbc
000000b0: 5bd4 403d a303 a13d edf3 253d a3e4 3d3d
000000c0: 51e3 a5bd 5584 0d3d b087 843d fc5c 26bd
000000d0: 43d1 89bc 14be 96bd 5167 b63c 231b 2bbd
000000e0: 7b75 a63d ff71 c63c a508 36bd 602e 693d
000000f0: 9c9f 22bc 4913 01bd 4f7f 993d c1a2 b93d

Decoder.1.weight f4 [64]
0.5766525 0.36233193 0.97055155 1.0716497 0.8316151 0.7796597 1.1126229 1.0317931
0.85701954 0.9946924 0.4902741 0.9481801 0.41944614 0.4838888 1.0048951 1.024972
0.9835371 0.89255476 0.9171499 0.59567404 0.6067484 0.73725325 0.8384825 0.95666766
0.83619106 0.6551865 0.87196165 0.92395526 0.9709152 0.882909 0.58879226 0.4344121
0.9419395 0.706242 0.8199121 0.7689892 1.0466452 0.80093884 0.5465157 1.0086831
0.82207924 1.0067105 0.9546827 0.6172046 0.56098366 1.1111239 0.7515343 0.53639394
0.7813049 0.86418444 0.827203 0.87184536 1.0298663 0.78343725 0.5527542 0.98327696
0.9451104 0.8561779 1.140087 0.97560215 0.6920266 0.58405334 0.5111036 0.951335
00000000: 809f 133f 9283 b93e 1176 783f d12b 893f
00000010: bae4 543f c797 473f 6d6a 8e3f cc11 843f
00000020: a265 5b3f 29a4 7e3f 3505 fb3e eebb 723f
00000030: a5c1 d63e 46c0 f73e 67a0 803f 4832 833f
00000040: 16c9 7b3f 787e 643f 56ca 6a3f 187e 183f
00000050: dd53 1b3f a1bc 3c3f caa6 563f 2ce8 743f
00000060: 9e10 563f 4dba 273f e138 5f3f 5588 6c3f
00000070: e68d 783f 5306 623f 17bb 163f 436b de3e
00000080: f222 713f 47cc 343f c2e5 513f 7adc 443f
00000090: 78f8 853f 540a 4d3f 74e8 0b3f 871c 813f
000000a0: c973 523f e4db 803f 1666 743f 1f01 1e3f
000000b0: a09c 0f3f 4f39 8e3f 8d64 403f 1d51 093f
000000c0: 9903 483f 313b 5d3f 93c3 533f 4231 5f3f
000000d0: a9d2 833f 588f 483f 4d81 0d3f 0ab8 7b3f
000000e0: c1f2 713f 7a2e 5b3f 5fee 913f 10c1 793f
000000f0: a828 313f 8584 153f afd7 023f b18a 733f

Decoder.1.bias f4 [64]
-0.04633317 0.2605257 0.41624 0.29759818 0.5895235 0.5282907 0.37556106 0.110342175
-0.012546297 0.57805306 0.7363135 0.011649976 0.555897 0.3307901 -0.04247939 0.04359389
0.022502922 0.36187905 0.3544317 0.35720757 0.18327555 0.24949993 0.41091096 -0.0224417
0.51083213 0.23138864 0.23564507 0.45723954 0.34883672 0.42689276 0.1447165 0.34934458
0.65011543 0.36575893 0.26441073 0.29484844 0.07324854 0.13083579 0.45882502 -0.013772345
0.03663343 0.045767885 -0.043080166 0.53386295 0.6043128 0.45678762 0.6502617 0.28539756
0.42968872 0.5453677 0.031556226 0.45522642 0.4544776 0.06712493 0.5225928 0.08486717
0.5801886 0.015022495 0.30858424 0.6730661 0.42581537 0.23331472 0.4913098 0.57088935
00000000: dac7 3dbd a063 853e 691d d53e ca5e 983e
00000010: 03eb 163f 0f3e 073f 8a49 c03e 14fb e13d
00000020: fc8e 4dbc 49fb 133f 0b7f 3c3f 8adf 3e3c
00000030: 444f 0e3f 525d a93e defe 2dbd 828f 323d
00000040: 0c58 b83c 3648 b93e 1278 b53e e9e3 b63e
00000050: 96ac 3b3e e97c 7f3e ec62 d23e a8d7 b7bc
00000060: e5c5 023f 25f1 6c3e f14c 713e 4d1b ea3e
00000070: ba9a b23e b091 da3e 9030 143e 4bdd b23e
00000080: f76d 263f c144 bb3e d860 873e 60f6 963e
00000090: 5503 963d d1f9 053e 1deb ea3e 67a5 61bc
000000a0: ef0c 163d 1b77 3b3d d474 30bd 3eab 083f
000000b0: 3eb4 1a3f 11e0 e93e 8d77 263f a11f 923e
000000c0: 2900 dc3e 389d 0b3f 1a41 013d 7013 e93e
000000d0: 4ab1 e83e cc78 893d a4c8 053f d7ce ad3d
000000e0: 3d87 143f e920 763c c1fe 9d3e 0f4e 2c3f
000000f0: 7904 da3e 0eea 6e3e f58c fb3e ce25 123f

Decoder.1.running_mean f4 [64]
0.71343595 0.60774666 1.7743285 0.57743454 2.5023096 1.3361305 1.4556158 1.6518259
-1.8614022 1.4248867 -0.48366937 2.0169399 2.6931522 1.1296563 0.08615337 1.7219175
2.2468944 0.70774704 2.3880184 2.2485585 -0.07037105 1.031895 2.3582497 -1.6659672
0.41818994 -0.84224254 1.5776044 1.2158458 0.15841155 2.89955 1.6651813 2.5832803
2.3363597 1.3342961 0.5870596 2.448356 -1.5894802 1.4920154 2.2744098 -0.53462577
2.5183554 1.1514462 -0.069889694 1.5663407 2.4174278 2.7252707 2.5814812 2.3107455
1.5240774 1.2916023 0.37114844 2.6512733 2.8900266 -2.3720438 1.094487 1.9544002
1.6009346 0.11846022 1.922038 1.4527462 4.4929194 0.4940848 3.3084412 3.0674412
00000000: bda3 363f 4995 1b3f 321d e33f c0d2 133f
00000010: d725 2040 5306 ab3f 9e51 ba3f 086f d33f
00000020: 6d42 eebf b062 b63f 83a3 f7be 8b15 0140
00000030: 9b5c 2c40 9498 903f 2e71 b03d cb67 dc3f
00000040: 1ecd 0f40 e92e 353f 4bd5 1840 62e8 0f40
00000050: b21e 90bd 2315 843f 90ed 1640 6a3e d5bf
00000060: fe1c d63e 359d 57bf f1ee c93f d6a0 9b3f
00000070: a336 223e 3a92 3940 a924 d53f 7754 2540
00000080: eb86 1540 37ca aa3f 8a49 163f ddb1 1c40
00000090: 1674 cbbf 5cfa be3f ee8f 1140 3cdd 08bf
000000a0: bc2c 2140 9762 933f 5422 8fbd da7d c83f
000000b0: 23b7 1a40 d66a 2e40 fd36 2540 41e3 1340
000000c0: f814 c33f 3953 a53f 2b07 be3e 76ae 2940
000000d0: 32f6 3840 91cf 17c0 2618 8c3f c929 fa3f
000000e0: 6deb cc3f 469b f23d 5705 f63f 96f3 b93f
000000f0: ffc5 8f40 aff8 fc3e 80bd 5340 f550 4440

Decoder.1.running_var f4 [64]
4.872441 2.4229944 8.21915 15.438066 11.404193 7.0217237 13.880739 3.8296993
5.128915 8.126248 3.3253741 4.3023524 3.9009652 3.0711744 5.1918173 8.24158
5.5101523 6.072883 6.975362 4.4395323 3.0180235 5.4641404 6.0207977 5.823782
7.188964 5.0335526 4.6841626 13.82257 6.249302 9.808468 2.5545368 4.7664375
11.758481 10.771301 4.884399 3.097085 9.781224 4.2154946 8.147394 5.5796676
5.1872196 5.651117 5.574207 3.633645 5.595686 13.281441 7.4675117 4.0213437
9.789427 12.187047 7.169604 9.314646 17.18444 6.5658417 4.4477 3.9626591
6.659948 4.891961 4.037098 11.384454 8.401311 5.9379272 5.5828443 9.798882
00000000: 09eb 9b40 5712 1b40 a381 0341 5102 7741
00000010: 9377 3641 f6b1 e040 8217 5e41 cb19 7540
00000020: 1220 a440 1d05 0241 eed2 5440 dfac 8940
00000030: 6aa9 7940 1f8e 4440 5e23 a640 83dd 0341
00000040: 2b53 b040 0f55 c240 2a36 df40 a610 8e40
00000050: 4c27 4140 3dda ae40 60aa c040 6c5c ba40
00000060: fe0b e640 dd12 a140 a9e4 9540 3f29 5d41
00000070: 48fa c740 7cef 1c41 887d 2340 a886 9840
00000080: bd22 3c41 4057 2c41 ff4c 9c40 a436 4640
00000090: e57f 1c41 55e5 8640 ba5b 0241 a38c b240
000000a0: b4fd a540 f3d5 b440 e75f b240 a48d 6840
000000b0: dc0f b340 c880 5441 dbf5 ee40 d9ae 8040
000000c0: 7ea1 1c41 25fe 4241 656d e540 ca08 1541
000000d0: bc79 8941 601b d240 8f53 8e40 359c 7d40
000000e0: 4b1e d540 f28a 9c40 e82f 8140 b926 3641
000000f0: c56b 0641 8003 be40 a9a6 b240 38c8 1c41
